model/models/torch_fraud_model.pth (torch, 2068 bytes, 1 tensors)

fc.weight f4 [1, 121]
000000 c0 37 1b bd 40 92 8b bb cc 6a 37 bd f0 b0 85 3b
       -0.037894964 -0.0042593777 -0.044779584 0.0040799305
000010 3c ec e3 3c 0c a2 b7 3d 88 a6 97 bd 3e 95 07 3d
       0.027822606 0.08966455 -0.0740481 0.033101313
000020 ad 27 9b bd 6c c3 75 bd c4 97 84 3d 20 dc 61 3c
       -0.07575927 -0.060000822 0.064742595 0.013785392
000030 28 36 e5 bc bc e9 48 3d e3 e6 37 bd 98 30 29 3c
       -0.027979925 0.04905103 -0.044897925 0.010326527
000040 fc 73 86 bd 40 10 bc 3b c0 59 7d bd 24 78 dc bc
       -0.06565091 0.005739242 -0.06185317 -0.026912756
000050 f0 a5 7e 3d 74 37 95 3d 40 e2 b8 3b 5e f3 7e bd
       0.06216997 0.072859675 0.0056422055 -0.06224381
000060 dc 6a 31 3d 60 c3 63 bc cc 66 61 3d c8 46 8f 3c
       0.0433148 -0.0139015615 0.055029675 0.017489806
000070 1c e9 c8 bc 50 aa 6f 3c 20 c8 3a 3d 86 d8 41 bd
       -0.024525218 0.014628008 0.04560101 -0.047325633
000080 7c 36 95 bc a0 0f 77 3c 6c 78 30 3d 23 12 48 bd
       -0.018214457 0.015079409 0.043083593 -0.04884542
000090 70 39 aa bc e8 26 2e 3d 66 ba 9b bd f0 ee ba 3c
       -0.020779341 0.042517573 -0.07603912 0.022819012
0000a0 18 e0 50 3d 38 f7 71 bc d0 2b 1a bc 00 65 eb 3b
       0.050994962 -0.014768414 -0.00940986 0.007183671
0000b0 be 2f 09 3d cc 6b 9c bc d4 c7 50 3d 64 82 e7 3c
       0.033492796 -0.01909437 0.05097182 0.028260417
0000c0 d5 5c 34 bd 18 da f9 bc 1c b6 97 bd 68 ad 77 3d
       -0.044033844 -0.030499503 -0.074077815 0.060468107
0000d0 38 d1 4a bd 80 1f 08 3a f4 da e8 3c 8d 9c a3 bd
       -0.049515933 0.0005192682 0.028424717 -0.07988844
0000e0 29 9f 59 bd e0 f2 2e 3d 12 bf a5 3d d8 cb 85 3c
       -0.053130303 0.042712092 0.080930844 0.016332552
0000f0 68 42 c5 bc 48 0e 9a bc c8 c5 4e 3d 32 65 8e bd
       -0.024079517 -0.018805638 0.050481588 -0.06952895
000100 18 b9 91 3c 5a 08 9f 3d 00 b9 9c b9 e8 fb fc 3c
       0.017788455 0.07765265 -0.00029892474 0.030881837
000110 88 ff 82 3d 94 3a ad 3d 95 c6 18 bd b0 db 22 3c
       0.06396395 0.084584385 -0.037298758 0.009940073
000120 94 73 48 3d 38 e2 62 3c 6f 35 a9 bd 8d 58 91 bd
       0.04893835 0.01384788 -0.08262145 -0.07096968
000130 26 c6 8b 3d 30 3c 7f bc a6 30 22 bd 50 83 02 bc
       0.06824903 -0.015578315 -0.039597176 -0.007965878
000140 82 e6 98 3d 40 fb aa 3c 3e 05 79 bd 28 74 29 3d
       0.07465841 0.020871758 -0.060796015 0.04137054
000150 5a 4e 98 3d bc 0c 7e 3d 30 b3 33 3d f2 78 2b bd
       0.074368194 0.062023863 0.04387206 -0.04186339
000160 a0 94 61 bc f3 27 b1 bd 92 4e b5 bd 88 50 ac bc
       -0.013768345 -0.08650198 -0.08852877 -0.021034494
000170 dd 44 3a bd 18 43 50 3c fc d8 b6 3c 7c 44 57 3d
       -0.04547583 0.012711309 0.022320263 0.052555546
000180 5c f9 45 3d 06 a3 64 bd aa 4b 92 3d 69 91 72 bd
       0.04833351 -0.055819534 0.07143338 -0.059220705
000190 9b 9b 48 bd 9a 62 ae 3d 88 db 6e 3d 4c ec 1a bd
       -0.048976522 0.085149005 0.05831483 -0.037823007
0001a0 b0 c9 ef 3c cf 31 b5 bd 18 a5 56 bd 78 2a 6b bd
       0.029270977 -0.08847391 -0.05240354 -0.05741355
0001b0 e8 27 b5 bc ba a5 9a 3d 4c 84 73 3d 06 83 18 bd
       -0.022113755 0.07551141 0.05945234 -0.03723433
0001c0 00 f8 b1 3c 9c 1f ee 3c f0 5e ec 3b 1d 34 89 bd
       0.0217247 0.029067807 0.007213466 -0.06699393
0001d0 38 9b 29 3c 18 24 63 bd 40 a4 f9 ba 60 36 74 bb
       0.010351948 -0.055454344 -0.0019046143 -0.0037263855
0001e0 34 82 bb bc
       -0.022889234
